faster_grad_cam/02_weight_quantization/weights_weight_quant.tflite (tflite, 747640 bytes, 104 tensors)

model_3/expanded_conv_depthwise_BN/FusedBatchNormV3 f4 [16]
-0.50143087 -0.3634258 0.7956352 3.0283608 3.0013504 -0.9826983 -0.78871673 -0.31209117
-0.14361906 6.300767 2.2610168 -0.01952005 -1.0813171 6.086221 0.07808605 4.6728544
00000000: c65d 00bf f212 babe c0ae 4b3f aad0 4140
00000010: 2016 4040 1e92 7bbf 57e9 49bf 6aca 9fbe
00000020: e010 13be e29f c940 80b4 1040 83e8 9fbc
00000030: 9968 8abf 53c2 c240 94eb 9f3d 0688 9540

model_3/block_1_depthwise_BN/FusedBatchNormV3 f4 [48]
0.44659323 0.14647788 2.4531085 0.014694542 0.9061394 2.2984893 6.09079 -0.07349403
0.42944986 5.894122 -8.385148 1.6276708 0.10248917 1.5823615 0.3077656 2.4907563
0.19642127 0.081211805 2.70578 1.0788984 0.5138767 2.1194494 -0.047300935 1.6005379
1.0280415 3.8766477 -2.1330605 0.33333087 1.6603268 0.13744533 1.2072858 1.7253304
-0.07473743 8.641716 0.0451885 2.8998597 0.038820736 2.034376 0.006912321 0.8641208
0.008544564 0.18952352 -0.27175924 1.0722154 -0.010712646 2.7545865 5.961221 0.20377894
00000000: dea7 e43e 4cfe 153e bbff 1c40 60c1 703c
00000010: c0f8 673f 731a 1340 c0e7 c240 0a84 96bd
00000020: dae0 db3e a69c bc40 9129 06c1 8457 d03f
00000030: d8e5 d13d d28a ca3f 7493 9d3e 8d68 1f40
00000040: a822 493e 6052 a63d 802b 2d40 5819 8a3f
00000050: 6c8d 033f 0fa5 0740 a0be 41bd 6dde cc3f
00000060: dd96 833f ff1a 7840 1084 08c0 58aa aa3e
00000070: 9785 d43f 78be 0c3e 5788 9a3f a0d7 dc3f
00000080: f00f 99bd 7844 0a41 9417 393d 4d97 3940
00000090: 7e02 1f3d 3733 0240 c080 e23b 0537 5d3f
000000a0: 80fe 0b3c 7412 423e 0724 8bbe 5b3e 893f
000000b0: 1884 2fbc 254b 3040 53c2 be40 6dab 503e

model_3/block_2_depthwise_BN/FusedBatchNormV3 f4 [96]
-0.7322778 0.11940552 2.1053753 -0.11860043 0.049168408 0.039207272 -1.1390744 -0.45817053
-0.3186336 0.042774886 -0.26316103 0.3536712 -0.066541195 2.7162068 -1.8761914 2.4391677
0.057581816 2.493998 1.9784935 5.519857 0.063443154 1.7493526 0.025571458 -0.23984537
0.0046634898 0.009705909 4.76836 0.0043666465 -10.528515 0.098149195 -1.2031319 -0.22156069
0.4348106 -0.62701917 0.017379284 -0.18441534 -1.1457223 2.298751 -2.9604049 -0.29810447
0.24727958 -0.04581686 -0.6077954 6.1051874 0.013273582 0.81498355 0.032190114 0.08504291
3.4614832 0.29579693 0.033234954 0.10927456 -0.055072546 0.15933985 0.3410418 3.434714
-2.8829355 11.466078 -0.16659239 0.025122374 -0.0927136 2.2902317 1.47413 -0.0074880943
-2.2022219 -0.23259342 3.5335653 0.028626658 0.09467952 -0.023259483 -0.0029415302 0.34816986
-0.0783585 0.7687942 -0.10307986 -0.09306922 1.83967 5.5981436 -0.08695521 -1.0783297
2.1011784 2.802242 0.11829221 -0.077525616 0.005273967 1.0492992 -0.07463963 0.011423945
1.7576221 0.07982801 0.059491344 0.27141464 0.6104133 0.018771555 -0.5502608 -0.58362687
00000000: 8f76 3bbf e28a f43d 78be 0640 c8e4 f2bd
00000010: d064 493d ce97 203d 31cd 91bf 5495 eabe
00000020: f123 a3be b834 2f3d 0bbd 86be 6414 b53e
00000030: c046 88bd 55d6 2d40 0a27 f0bf 531b 1c40
00000040: e9da 6b3d aa9d 1f40 463f fd3f aba2 b040
00000050: 7cee 813d c9ea df3f 3c7b d13c 069a 75be
00000060: 30d0 983b 8805 1f3c 6896 9840 1616 8f3b
00000070: cc74 28c1 7202 c93d 3a00 9abf cee0 62be
00000080: 7f9f de3e 5484 20bf 005f 8e3c 60d7 3cbe
00000090: 07a7 92bf bd1e 1340 4677 3dc0 26a1 98be
000000a0: dc36 7d3e 76aa 3bbd 7b98 1bbf b25d c340
000000b0: 7079 593c c3a2 503f c8d9 033d fa2a ae3d
000000c0: f188 5d40 b272 973e 6021 083d 57cb df3d
000000d0: c093 61bd fc29 233e 089d ae3e 5bd2 5b40
000000e0: 0482 38c0 0e75 3741 3297 2abe 70cd cd3c
000000f0: a1e0 bdbd 2893 1240 4bb0 bc3f b05e f5bb
00000100: 34f1 0cc0 f82c 6ebe ef25 6240 7482 ea3c
00000110: 56e7 c13d ac8a bebc b0c6 40bb 5243 b23e
00000120: 6c7a a0bd b2cf 443f 891b d3bd 139b bebd
00000130: 4e7a eb3f fe23 b340 9315 b2bd b506 8abf
00000140: b579 0640 ef57 3340 3043 f23d c0c5 9ebd
00000150: 3ed1 ac3b 704f 863f aadc 98bd 802b 3b3c
00000160: c3f9 e03f de7c a33d 32ad 733d dcf6 8a3e
00000170: 0c44 1c3f cec6 993c e4dd 0cbf 9268 15bf

model_3/block_3_depthwise_BN/FusedBatchNormV3 f4 [96]
-0.25633466 -0.0814085 5.9816136 -1.7604539 0.41948524 2.7610867 -0.003616929 5.7463636
4.0913296 0.00884521 -0.59837335 -0.03963527 5.7245364 4.112289 2.9581773 2.157759
2.3749387 0.16341412 1.5827062 6.062562 0.39818844 -0.12289165 -0.0025926232 -0.06271781
-0.005695224 5.017328 0.19765398 -0.33686352 0.39060026 1.6779059 1.3300229 4.12384
0.050961316 2.2541678 2.4888504 0.32465938 0.14573157 1.3812083 -0.065544695 4.231084
1.9450581 2.4570882 0.0025477856 0.39149296 1.166006 5.560135 5.7728395 6.0239167
0.08236043 -0.020233154 5.625085 6.086309 0.37020093 0.15744118 -0.012861788 -0.05469668
-0.26896968 3.3516276 1.8257165 1.5623984 -0.13615108 5.5875864 0.3412814 2.2233272
5.74235 5.9869547 1.7346494 -0.19904564 4.363712 -0.18284929 2.2673206 1.4090719
3.12467 0.4800328 2.807646 0.12023991 0.16333075 5.6095257 -0.42394578 6.050215
3.2735515 0.19407424 6.010546 2.7852607 0.1680916 2.0610995 2.7395208 1.7015998
0.17600346 0.06515005 0.12493646 2.2677393 -3.811063 3.5995278 1.5245906 0.38253316
00000000: 4c3e 83be 80b9 a6bd 6169 bf40 8e56 e1bf
00000010: c5c6 d63e a5b5 3040 000a 6dbb 36e2 b740
00000020: 2cec 8240 80eb 103c ff2e 19bf 9858 22bd
00000030: 672f b740 df97 8340 c752 3d40 b918 0a40
00000040: fffe 1740 0856 273e 1e96 ca3f 8200 c240
00000050: 5bdf cb3e 9eae fbbd 00e9 29bb 3272 80bd
00000060: 009f babb f38d a040 ce65 4a3e 6079 acbe
00000070: c2fc c73e 9fc5 d63f 313e aa3f 7ff6 8340
00000080: d0bc 503d 4944 1040 5349 1f40 c139 a63e
00000090: a83a 153e 6fcb b03f 4c3c 86bd 0a65 8740
000000a0: aaf7 f83f ef40 1d40 c0f8 263b c471 c83e
000000b0: af3f 953f a0ec b140 1abb b840 edc3 c040
000000c0: 96ac a83d 00c0 a5bc b200 b440 0bc3 c240
000000d0: fa8a bd3e 4338 213e 40ba 52bc a009 60bd
000000e0: 65b6 89be 1181 5640 14b1 e93f acfc c73f
000000f0: 306b 0bbe 82cd b240 70bc ae3e fe4a 0e40
00000100: 55c1 b740 2295 bf40 fe08 de3f 9fd2 4bbe
00000110: 87a3 8b40 d83c 3bbe c81b 1140 785c b43f
00000120: 98fa 4740 dcc6 f53e 79b0 3340 5840 f63d
00000130: 2d40 273e 3c81 b340 6c0f d9be 5c9b c140
00000140: de81 5140 66bb 463e 6556 c040 b641 3240
00000150: 3420 2c3e 0ee9 0340 4f54 2f40 06ce d93f
00000160: 403a 343e 646d 853d b0de ff3d a422 1140
00000170: 75e8 73c0 aa5e 6640 c925 c33f 63db c33e

model_3/block_4_depthwise_BN/FusedBatchNormV3 f4 [96]
2.7007866 3.280056 2.9085777 -0.8025301 -7.441498 2.9201727 -0.34333578 -0.52672297
2.9143577 -0.764658 4.463312 1.0383317 0.4757936 2.127773 0.15909436 -1.1034268
-2.4845436 2.795376 -0.22649398 -0.4260568 0.270655 -0.046859156 -0.09641902 1.072581
2.316985 0.18718126 2.5961108 1.6771002 -0.025604345 -1.5037911 -5.0272036 -0.09842226
-2.559313 -0.37192607 -0.039902806 2.752437 -2.0349216 3.3541152 -0.6522564 -2.015535
-2.5209897 -0.14167607 0.6127632 -2.5963 3.713286 -0.26520646 0.4631188 1.0079085
-0.48141265 0.04854069 0.109404646 2.5833943 0.34447235 -1.3063806 -0.45781705 -0.89457315
-0.10977823 4.134464 0.019222323 1.2759721 2.2467015 1.7365499 0.021248601 -0.28414798
0.052793697 0.6899214 2.4869456 -21.194876 3.450697 -2.1427293 0.033581503 2.675912
0.03472478 0.14516142 0.024324834 0.03432351 2.7687423 -0.6503395 1.6765785 -0.11174765
3.2726972 -0.4095013 3.3730073 -1.216533 -0.8239095 3.1949677 0.06497149 -0.05915822
4.331566 6.58918 -0.56541646 -0.90131515 -6.4555283 0.101810336 0.21290922 -0.13361934
00000000: b0d9 2c40 70ec 5140 2326 3a40 9d72 4dbf
00000010: c020 eec0 1ce4 3a40 b5c9 afbe 51d7 06bf
00000020: d684 3a40 a0c0 43bf 74d3 8e40 0ee8 843f
00000030: 389b f33e 6f2d 0840 a2e9 223e 173d 8dbf
00000040: c302 1fc0 71e7 3240 0aee 67be 1e24 dabe
00000050: 4b93 8a3e 63ef 3fbd 5677 c5bd 564a 893f
00000060: 7b49 1440 72ac 3f3e ae26 2640 38ab d63f
00000070: 34c0 d1bc 3a7c c0bf dade a0c0 9c91 c9bd
00000080: c9cb 23c0 186d bebe 2071 23bd ee27 3040
00000090: 283c 02c0 d3a9 5640 47fa 26bf 87fe 00c0
000000a0: e557 21c0 8813 11be 0dde 1c3f c729 26c0
000000b0: 7aa6 6d40 24c9 87be e81d ed3e 2503 813f
000000c0: b87b f6be 9ad2 463d 8b0f e03d 5556 2540
000000d0: ae5e b03e 7b37 a7bf ff66 eabe bf02 65bf
000000e0: 69d3 e0bd 874d 8440 2278 9d3c 0e53 a33f
000000f0: f5c9 0f40 4447 de3f 8c11 ae3c d87b 91be
00000100: 343e 583d b09e 303f 1e2a 1f40 1b8f a9c1
00000110: 38d8 5c40 7a22 09c0 c28c 093d 2442 2b40
00000120: 923b 0e3d 32a5 143e e044 c73c cf96 0c3d
00000130: 1333 3140 a67c 26bf 209a d63f f4db e4bd
00000140: df73 5140 28aa d1be 5adf 5740 5ab7 9bbf
00000150: bceb 52bf 5a7a 4c40 c60f 853d e44f 72bd
00000160: 309c 8a40 90da d240 22bf 10bf 97bc 66bf
00000170: b093 cec0 f081 d03d e004 5a3e 82d3 08be

model_3/block_5_depthwise_BN/FusedBatchNormV3 f4 [96]
-0.3582445 -0.027971879 0.80847543 -6.8574734 -0.010184601 -0.004341632 -0.76071715 2.5329008
0.06736368 -0.47830006 -2.549015 -0.056488886 -0.26624912 -0.019146442 -0.20883907 -0.007288575
-0.14009899 -0.9965749 3.5079389 -0.10902167 -0.42962033 -0.072252765 -0.010915503 -0.58878523
0.8072325 3.0053658 0.1747128 -0.75582135 -0.017429711 -2.7205472 -0.78332055 -0.005625814
1.9867504 -1.5414782 -0.15319493 -0.16297396 0.10360595 2.0322413 -1.6672258 -1.0109396
0.14672121 0.33920318 -0.9688394 0.94171417 0.0026797801 -0.2512827 -0.15155622 0.145532
-0.8920164 -2.9902015 -0.7153822 1.4816096 -0.024063297 0.1642395 0.5835025 0.2762279
-0.3684353 -0.12899993 -0.049719166 -0.27668422 -0.8425063 -0.55730987 -0.38226852 -1.1609151
-0.23725498 -0.16440928 1.8255609 5.665671 0.09708643 -0.47983658 3.1804512 -0.65493846
2.3900146 -0.7584418 0.36265862 -1.480418 0.84052145 -0.25657344 -0.20167837 1.3006625
1.8120366 3.37757 -1.4465469 -0.9931581 0.6872661 3.0505993 3.5175292 1.8174444
0.812007 0.73727703 -2.00342 0.18425924 -1.1055276 3.1147525 0.17097452 1.528483
00000000: d36b b7be 4825 e5bc 3ff8 4e3f 6c70 dbc0
00000010: 50dd 26bc 4044 8ebb 5cbe 42bf 0c1b 2240
00000020: f8f5 893d bfe3 f4be 1023 23c0 e460 67bd
00000030: ce51 88be 00d9 9cbc e9d9 55be 00d5 eebb
00000040: 1c76 0fbe 881f 7fbf 1282 6040 c146 dfbd
00000050: 32f7 dbbe 42f9 93bd f0d6 32bc a1ba 16bf
00000060: caa6 4e3f ea57 4040 eae7 323e 827d 41bf
00000070: c1c8 8ebc 721d 2ec0 b287 48bf c058 b8bb
00000080: d64d fe3f 284f c5bf 22df 1cbe a5e2 26be
00000090: 5b2f d43d 3e10 0240 a867 d5bf 7866 81bf
000000a0: 163e 163e 0aac ad3e dc05 78bf 2e14 713f
000000b0: 409f 2f3b 20a8 80be 8e31 1bbe 5706 153e
000000c0: 305b 64bf 765f 3fc0 4a23 37bf 62a5 bd3f
000000d0: 6420 c5bc 662e 283e 6b60 153f be6d 8d3e
000000e0: 8da3 bcbe 8f18 04be 53a6 4bbd 8ea9 8dbe
000000f0: 7eae 57bf dcab 0ebf b3b8 c3be de98 94bf
00000100: f8f2 72be e85a 28be fbab e93f 2d4d b540
00000110: 40d5 c63d 24ad f5be 838c 4b40 0caa 27bf
00000120: 00f6 1840 3e29 42bf 64ae b93e 567e bdbf
00000130: 6a2c 573f 985d 83be c684 4ebe 1c7c a63f
00000140: d1f0 e73f 1b2a 5840 7328 b9bf 9c3f 7ebf
00000150: acf0 2f3f 053d 4340 331f 6140 05a2 e83f
00000160: b1df 4f3f 30be 3c3f 0938 00c0 74ae 3c3e
00000170: ee81 8dbf 1b58 4740 f213 2f3e 55a5 c33f

model_3/block_6_depthwise_BN/FusedBatchNormV3 f4 [96]
-0.56558865 1.4808946 0.21403134 6.003727 -0.004106462 1.754652 -0.080142975 0.64965314
2.6229022 0.25305116 2.3233504 1.1779064 0.30563784 2.6269083 4.538968 -0.6358012
-0.15631706 -0.06320307 0.69207406 0.17743725 0.3540553 0.017536283 0.1410085 0.014406173
5.8220057 0.17663705 2.9422085 0.60960495 1.630658 0.5513038 2.539957 6.036112
-0.017118633 1.6572949 -0.24291924 -0.021996126 0.07476154 0.027285814 2.1693263 2.1561007
2.2507453 0.02217725 0.4412036 0.33177996 6.2063036 3.5310812 -0.059001803 -0.26441836
1.7266524 0.0067667663 -0.09825769 3.722464 5.907071 1.8131166 -0.31114292 0.91420245
1.7721646 1.9642563 -0.04130435 0.32366645 1.4629185 0.8094321 0.098848164 4.4444923
0.531821 1.3521122 0.12571299 -0.09592447 5.4425755 0.16075909 -0.33318448 -0.21966922
4.20635 -0.06365326 0.0023508072 0.0503397 -0.02264607 0.05502394 6.078194 6.0233374
2.256893 6.4702396 1.883783 5.8240128 3.0876036 5.2373924 0.003732264 -0.78546923
0.13133782 6.367161 -0.19183923 -0.57117456 -0.12131464 -0.20592278 2.441258 6.4342227
00000000: 6bca 10bf f48d bd3f 082b 5b3e 881e c040
00000010: 808f 86bb 7098 e03f 0022 a4bd ab4f 263f
00000020: a1dd 2740 ec8f 813e c6b1 1440 a3c5 963f
00000030: 907c 9c3e 441f 2840 3a3f 9140 dec3 22bf
00000040: 9411 20be 9c70 81bd c42b 313f 1cb2 353e
00000050: bc46 b53e 40a8 8f3c 8864 103e de07 6c3c
00000060: df4d ba40 58e0 343e 254d 3c40 120f 1c3f
00000070: 67b9 d03f 3f22 0d3f a88e 2240 d427 c140
00000080: 603c 8cbc 3d22 d43f d2bf 78be 3831 b4bc
00000090: 941c 993d 8086 df3c 3ed6 0a40 8efd 0940
000000a0: 360c 1040 10ad b53c 70e5 e13e 10df a93e
000000b0: 0a9a c640 3cfd 6140 e0ab 71bd d861 87be
000000c0: f202 dd3f c0bb dd3b 543b c9bd da3c 6e40
000000d0: ba06 bd40 3414 e83f 204e 9fbe 2c09 6a3f
000000e0: 4ad6 e23f c06c fb3f c02e 29bd 9cb7 a53e
000000f0: ea40 bb3f f136 4f3f e870 ca3d 4839 8e40
00000100: 6c25 083f 0312 ad3f e8ba 003e 0c74 c4bd
00000110: 9429 ae40 089e 243e 2897 aabe f8f0 60be
00000120: 6b9a 8640 a45c 82bd 0010 1a3b 0031 4e3d
00000130: 4084 b9bc c860 613d 9180 c240 2ebf c040
00000140: ef70 1040 340c cf40 cd1f f13f 505e ba40
00000150: 4c9b 4540 b898 a740 0099 743b 8314 49bf
00000160: 6c7d 063e c8bf cb40 8171 44be 7f38 12bf
00000170: cf73 f8bd 6cdd 52be 923d 1c40 27e5 cd40

model_3/block_7_depthwise_BN/FusedBatchNormV3 f4 [192]
-0.24062711 -0.08548316 -0.13556491 -2.2212977 5.1399384 -1.8305058 -0.057864934 1.0564557
0.3914521 -2.3801713 -1.63786 -2.4042735 -0.13504957 0.055914164 -0.41123784 -0.09147165
-0.32223943 0.048410177 0.040451095 -2.2607844 1.6787336 -1.2221913 1.0431716 -0.18879482
0.10319877 -0.083455004 3.2066054 -0.11066216 0.1251089 0.08429769 0.19996607 -0.17989838
3.5157921 1.341681 1.8432331 0.55073166 -0.7325368 -1.5978072 0.0136723 1.4115517
0.024970196 1.5332055 -0.016390014 -0.25911134 -0.3224919 0.053217493 1.5339158 -1.5697639
-1.3572953 -0.043081522 1.4477828 -0.3103441 -3.0949786 1.1921515 -1.8174446 -1.8857143
-1.8639252 -0.5082048 0.31415594 1.7163563 -0.020393878 -1.5384309 0.06209065 -1.8051398
0.037826955 -2.649384 0.004189953 6.581387 -0.10515046 0.30125213 -0.06763372 -0.10129696
-1.670892 0.51811445 0.34116203 1.3596944 -0.36639485 3.5425606 -0.16500624 18.541216
-0.08040008 0.060704224 -0.45642784 3.1033301 -4.386597 1.4610747 -4.3420525 0.09767579
-0.15525807 0.28834763 0.97054136 0.022047102 0.45092368 -0.035727873 -0.9119354 -0.09562865
1.6287036 0.055200517 -7.7481604 -1.4623226 0.79340553 -2.1248436 -0.6743132 4.1333966
-0.74140507 -1.7118211 -2.6366587 2.4099128 -0.005813241 1.871384 -0.25013787 0.06039235
-0.08047822 -0.054467365 0.14085516 2.8161197 -1.0529656 0.047731012 1.3222837 -6.628909
3.5464306 -5.5417356 -0.11769308 -0.017528847 0.11044106 0.025760725 5.5523877 -0.0401676
1.9164705 -0.53987575 -1.5960851 2.550848 4.2425137 -0.20995897 1.4008515 2.0988772
1.7250557 7.233936 0.13672027 0.007147923 -0.97709155 1.3021469 -1.0211766 0.36207938
0.60423064 -0.44589368 2.8241906 -1.8981743 -1.2600837 -0.016532045 0.22574095 -0.00075539947
-0.16421753 -0.36597806 0.30528498 1.5730634 0.049611747 -0.09530053 2.8485844 -0.21803126
11.851293 0.01716528 -0.18930313 0.15752447 12.327604 4.07492 2.299909 -0.9404148
0.6100575 0.2525265 -0.9494344 -1.5945988 2.2003167 0.034388125 -0.09289372 -2.233323
-2.5956836 3.3818269 2.19111 0.03346522 0.0012130868 -2.033676 -0.10344355 -2.6000917
-0.044059068 7.6491404 0.814077 0.13103557 -0.05355134 -0.16389495 0.002065383 -0.98847675
00000000: f466 76be cc11 afbd 87d1 0abe be29 0ec0
00000010: 607a a440 044e eabf c803 6dbd f139 873f
00000020: 696c c83e ba54 18c0 65a5 d1bf 9edf 19c0
00000030: 6f4a 0abe 4006 653d c48d d2be 7d55 bbbd
00000040: 91fc a4be c049 463d 0cb0 253d b1b0 10c0
00000050: bee0 d63f c470 9cbf a686 853f 6e53 41be
00000060: e059 d33d 75ea aabd 0639 4d40 d8a2 e2bd
00000070: 8c1c 003e 44a4 ac3d e8c3 4c3e 4837 38be
00000080: bd02 6140 34bc ab3f 10ef eb3f c0fc 0c3f
00000090: 8887 3bbf f284 ccbf c801 603c baad b43f
000000a0: 4c8e cc3c 1440 c43f 5a44 86bc 3eaa 84be
000000b0: a91d a5be 96fa 593d 5a57 c43f 06ee c8bf
000000c0: dabb adbf 4076 30bd f250 b93f 6ce5 9ebe
000000d0: 2114 46c0 6c98 983f 06a2 e8bf 165f f1bf
000000e0: 1a95 eebf b619 02bf 0cd9 a03e 90b1 db3f
000000f0: 1011 a7bc 4eeb c4bf c452 7e3d d20e e7bf
00000100: 70f0 1a3d 828f 29c0 e04b 893b b99a d240
00000110: 2059 d7bd b83d 9a3e 8c83 8abd c874 cfbd
00000120: cadf d5bf 26a3 043f caac ae3e 770a ae3f
00000130: 1b98 bbbe 50b9 6240 65f7 28be 6954 9441
00000140: cca8 a4bd fea4 783d e9b0 e9be f69c 4640
00000150: 015f 8cc0 7f04 bb3f 18f2 8ac0 3f0a c83d
00000160: f9fb 1ebe 4da2 933e 6675 783f 209c b43c
00000170: 78df e63e 6457 12bd 9974 69bf f4d8 c3bd
00000180: 5c79 d03f f019 623d eef0 f7c0 632d bbbf
00000190: a01c 4b3f 70fd 07c0 ca9f 2cbf c944 8440
000001a0: b9cc 3dbf f41c dbbf 04bf 28c0 033c 1a40
000001b0: 007d bebb 8389 ef3f 1212 80be f85d 773d
000001c0: c4d1 a4bd 2c19 5fbd 563c 103e 4e3b 3440
000001d0: 94c7 86bf 9881 433d 9840 a93f 0620 d4c0
000001e0: b8f8 6240 e655 b1c0 1209 f1bd a898 8fbc
000001f0: ec2e e23d 2808 d33c 29ad b140 c886 24bd
00000200: e84e f53f 4c35 0abf 844c ccbf 1841 2340
00000210: acc2 8740 7cff 56be 1a4f b33f 0154 0640
00000220: a0ce dc3f 677c e740 6600 0c3e 2039 ea3b
00000230: ac22 7abf c0ac a63f eab5 82bf 7862 b93e
00000240: dcae 1a3f 2d4c e4be 8abf 3440 60f7 f2bf
00000250: 6c4a a1bf 366e 87bc a328 673e 0006 46ba
00000260: a428 28be 7a61 bbbe 504e 9c3e 245a c93f
00000270: b035 4b3d ed2c c3bd 354f 3640 9643 5fbe
00000280: e59e 3d41 349e 8c3c aed8 41be 184e 213e
00000290: de3d 4541 bf65 8240 b631 1340 06bf 70bf
000002a0: ba2c 1c3f 274b 813e 220e 73bf d01b ccbf
000002b0: fdd1 0c40 90da 0c3d 103f bebd c4ee 0ec0
000002c0: ae1f 26c0 da6f 5840 253b 0c40 d412 093d
000002d0: 7000 9f3a bf27 02c0 36da d3bd e767 26c0
000002e0: 4877 34bd c2c5 f440 5a67 503f 302e 063e
000002f0: a658 5bbd 14d4 27be 605b 073b d00c 7dbf

model_3/block_8_depthwise_BN/FusedBatchNormV3 f4 [192]
-0.3434097 2.89595 -0.4191404 4.51154 0.001689136 -1.1078768 0.0003464818 -2.5586336
-2.2421012 -2.2653189 -3.914765 -0.09924326 -0.9485737 0.46581239 -1.8724194 0.68656915
-0.33646613 -0.7626982 -0.74165267 1.2174622 1.4974941 1.0574963 1.2323178 -0.9839548
2.0275574 -1.197536 3.3077931 -2.5970685 -2.1714544 4.9272137 -0.054196775 0.14473283
-0.4789306 0.20806012 -0.5891254 0.32102057 1.2947447 -1.4379311 -2.004788 1.180846
-0.6563045 -0.43545717 -0.065565646 -0.0026824176 -1.9838418 1.1236217 -0.31167316 -1.950794
-0.389349 -2.24958 -1.0052973 -2.535996 2.7073674 0.02875185 0.026375383 -2.220598
0.29032823 0.024496838 1.4766109 -0.5836412 -0.6325556 1.3972657 -2.010901 -0.018800884
-1.0833347 1.0089176 -0.19405997 1.9958924 0.021410882 -0.36750638 -2.023486 -0.09833338
0.7536876 -0.28031033 -1.7643042 5.993515 -1.2145494 -0.8635893 2.0687208 0.4893829
-0.08214697 -2.7194204 -3.232331 -1.727918 -2.7795875 -1.2971833 1.0134062 -3.5159965
3.2160852 -0.17758547 0.7683042 -0.060516775 -1.3409125 2.0671751 -0.13583261 0.5863213
-2.3741047 -0.6159712 -0.23468494 -0.21448493 1.2278957 -0.260702 -0.04948368 -2.3518262
-0.010289699 -0.67799115 0.3516222 -0.038729444 5.8995285 0.09387761 -0.39642763 -1.2512125
1.0177749 2.3275442 -1.7811964 -2.1648152 -0.11648105 -0.4908126 0.07885417 6.872322
0.96173966 -0.3771742 1.4340146 -0.050987095 -2.1651866 0.9650902 0.18030705 -0.29464632
1.5043722 -0.016036034 0.021488257 -18.274534 0.8215483 -2.1330771 0.1347228 4.092052
6.736506 -0.053813636 -0.12763876 2.0110896 4.098486 0.028684549 -0.66136324 2.9508975
-1.1071625 -2.8273432 -0.05002208 -0.005206406 0.10237083 0.5242342 2.4320636 2.222827
-0.44091058 0.020500451 2.4892845 3.8839042 0.07435429 -0.098421425 1.9062241 4.8513823
0.25884217 2.2470293 1.4613048 -0.18411359 3.1164253 -2.4862032 -0.233311 -0.121525586
-1.0742784 0.27573013 -2.1252832 -2.1544366 2.502697 -0.3041225 -0.20295648 -1.1881919
-0.10926473 -0.930144 1.6126482 -2.4844298 0.53644437 -0.4577938 0.016155481 -0.22229585
-4.3405495 -5.2492704 -3.109057 0.37202138 1.3586658 -0.058421597 -0.05395338 -1.3607852
00000000: 65d3 afbe 3f57 3940 9299 d6be 895e 9040
00000010: 0066 dd3a e8ce 8dbf 00a8 b539 a7c0 23c0
00000020: 967e 0fc0 fcfa 10c0 828b 7ac0 0d40 cbbd
00000030: bad5 72bf f67e ee3e 70ab efbf ffc2 2f3f
00000040: 4a45 acbe 3040 43bf f3dc 3dbf cdd5 9b3f
00000050: e3ad bf3f 0a5c 873f 97bc 9d3f 76e4 7bbf
00000060: 80c3 0140 dc48 99bf e2b2 5340 5f36 26c0
00000070: 1cf9 0ac0 bcab 9d40 70fd 5dbd d834 143e
00000080: 6436 f5be b60d 553e ecd0 16bf cf5c a43e
00000090: 32ba a53f 200e b8bf 724e 00c0 f625 973f
000000a0: 9203 28bf 3ef4 debe 4847 86bd 80cb 2fbb
000000b0: 87ee fdbf d6d2 8f3f a093 9fbe 9eb3 f9bf
000000c0: c158 c7be 1ef9 0fc0 95ad 80bf c24d 22c0
000000d0: 8245 2d40 0089 eb3c 3011 d83c 471e 0ec0
000000e0: e7a5 943e 98ad c83c 9601 bd3f 8269 15bf
000000f0: 2aef 21bf 9ad9 b23f 9ab2 00c0 5004 9abc
00000100: b6aa 8abf 3624 813f a8b7 46be 6779 ff3f
00000110: e065 af3c cc29 bcbe cb80 01c0 0363 c9bd
00000120: acf1 403f d684 8fbe b8d4 e1bf e0ca bf40
00000130: 5b76 9bbf 3014 5dbf ec65 0440 6590 fa3e
00000140: ac3c a8bd fc0a 2ec0 83de 4ec0 6b2c ddbf
00000150: c3e4 31c0 1a0a a6bf 4bb7 813f 1606 61c0
00000160: 57d4 4d40 f7d8 35be 96af 443f 70e0 77bd
00000170: 05a3 abbf 994c 0440 b417 0bbe 2719 163f
00000180: 55f1 17c0 4ab0 1dbf 4051 70be f0a1 5bbe
00000190: b02b 9d3f bc7a 85be 66af 4abd 5284 16c0
000001a0: 2096 28bc d490 2dbf d307 b43e c4a2 1ebd
000001b0: f0c8 bc40 e842 c03d 90f8 cabe bb27 a0bf
000001c0: 7346 823f 7cf6 1440 3efe e3bf 558c 0ac0
000001d0: 9e8d eebd ca4b fbbe 4c7e a13d 10ea db40
000001e0: 9234 763f fa1c c1be ca8d b73f d8d7 50bd
000001f0: 6b92 0ac0 2710 773f 69a2 383e e2db 96be
00000200: 458f c03f 005e 83bc 2408 b03c 3f32 92c1
00000210: fd50 523f 5684 08c0 c6f4 093e 17f2 8240
00000220: 7591 d740 b06b 5cbd bcb3 02be b1b5 0040
00000230: cc26 8340 dcfb ea3c 1a4f 29bf 81db 3c40
00000240: 80b7 8dbf 31f3 34c0 f4e3 4cbd 809a aabb
00000250: cca7 d13d 3634 063f eea6 1b40 cc42 0e40
00000260: 08bf e1be 90f0 a73c 7050 1f40 e391 7840
00000270: 1047 983d 2c91 c9bd 27ff f33f 863e 9b40
00000280: f686 843e 54cf 0f40 090c bb3f 4688 3cbe
00000290: 8373 4740 f41d 1fc0 14e9 6ebe 68e2 f8bd
000002a0: f481 89bf 802c 8d3e a404 08c0 4ae2 09c0
000002b0: 302c 2040 f2b5 9bbe d3d3 4fbe ac16 98bf
000002c0: 30c6 dfbd eb1d 6ebf 426b ce3f e600 1fc0
000002d0: 6b54 093f f363 eabe 8058 843c 86a1 63be
000002e0: c8e5 8ac0 06fa a7c0 cafa 46c0 9679 be3e
000002f0: c3e8 ad3f 7c4b 6fbd 38fe 5cbd 362e aebf

model_3/block_9_depthwise_BN/FusedBatchNormV3 f4 [192]
-0.3489601 -0.06651172 -0.9361711 -0.7415033 -1.8983374 -2.6370294 -0.8261694 -2.074477
-1.8119092 -1.1680126 -0.22411361 2.0880811 1.9603475 -1.1088922 0.6050709 0.0069106817
1.5633801 0.40451044 -0.18163508 -2.0808716 2.5756865 -1.6949526 2.091346 -0.6136264
0.7827872 1.3960164 -3.229154 -1.1415191 -0.7589322 -0.13617438 -1.7259164 1.7663832
-0.5319703 1.2684655 -0.6691567 -2.5248682 -0.008038729 -4.3471146 -1.6253831 2.7538197
-1.1089638 1.4461639 -1.0881605 -1.678445 3.3435528 -1.8173993 -1.4345706 -0.5378405
-0.45886225 0.2458081 -0.062309667 -3.7536702 -1.2170887 1.8996491 0.16116221 -1.1804137
-0.6861032 -2.418597 -0.13326916 0.5345271 -0.074303314 -2.1102407 0.94445735 -1.208303
-2.2762341 -2.3433242 -0.043485247 -0.164078 2.5126252 4.937728 -2.1514196 -0.5227471
-3.4202633 -2.1381416 -0.036690596 -0.16168916 -0.033478703 -0.52533674 2.0005238 -2.4821558
0.47749975 -0.8927103 -0.42005306 -0.46862072 -0.9490597 1.9877805 1.8718492 3.4936416
-1.302506 -0.26667845 -5.2251 0.033994943 -2.277575 -2.576609 -1.0515022 -0.29297668
-2.5842586 -3.2817411 -0.4208244 -0.176141 2.5708346 -1.2214558 -1.7680274 -2.394653
-1.5010872 -3.5546281 -0.19825143 -2.4895506 6.014585 -3.7838936 2.1742845 4.8755865
-0.9661217 -2.7569094 -0.068258815 -0.30339697 -1.4166346 0.7204356 -2.1257794 -0.9653203
-3.4118905 0.21225177 1.042938 1.2255038 0.8031715 -1.784904 -0.40123704 -0.13384557
1.5108242 -1.0440015 -0.49285716 2.4311638 3.0498102 -1.4997482 2.906571 -1.6166091
-1.0701715 0.89550185 0.017294839 -0.00066018105 1.1917022 -1.7499123 -6.395389 -2.7621176
-0.40957898 -0.68427724 1.8759865 1.6827269 -1.1204839 4.213387 -1.85317 3.617695
-1.8857604 -1.9358134 0.5182066 -2.5848033 -1.9403436 1.0461751 -1.5503328 -0.15431829
1.8327141 -2.5791302 -0.7355895 -0.7602716 -2.593839 2.0220687 -1.4329977 -4.264659
-2.888482 -0.10689223 0.85809577 -0.41563785 0.9143318 1.9030746 -1.1822083 -0.5269074
-3.3086758 -0.17933464 -0.061086386 7.491572 -0.32545698 -1.449252 -2.2949297 -3.168401
-0.05353234 -0.32708126 -0.31014505 6.684315 1.1872909 -0.92201674 -0.42347068 -0.14649959
00000000: e6aa b2be 4c37 88bd e9a8 6fbf 29d3 3dbf
00000010: b8fc f2bf 17c5 28c0 d67f 53bf 3bc4 04c0
00000020: a4ec e7bf 7081 95bf 0a7e 65be 1fa3 0540
00000030: abec fa3f 2ef0 8dbf ede5 1a3f 0073 e23b
00000040: d71c c83f fe1b cf3e 8cfe 39be 002d 05c0
00000050: 0cd8 2440 35f4 d8bf 9dd8 0540 9f16 1dbf
00000060: be64 483f aab0 b23f 76aa 4ec0 4c1d 92bf
00000070: 6149 42bf 4c71 0bbe d4ea dcbf d818 e23f
00000080: 352f 08bf 145d a23f da4d 2bbf 7197 21c0
00000090: e0b4 03bc 901b 8bc0 8e0c d0bf 953e 3040
000000a0: 87f2 8dbf e61b b93f d848 8bbf 49d7 d6bf
000000b0: c5fc 5540 8aa0 e8bf 02a0 b7bf eaaf 09bf
000000c0: feef eabe 1eb5 7b3e 6c38 7fbd 223c 70c0
000000d0: 90c9 9bbf b427 f33f b507 253e cc17 97bf
000000e0: 76a4 2fbf 4bca 1ac0 b677 08be c5d6 083f
000000f0: 562c 98bd 2f0e 07c0 f5c7 713f aca9 9abf
00000100: d2ad 11c0 06f9 15c0 961d 32bd 1004 28be
00000110: dace 2040 de01 9e40 dcb0 09c0 c1d2 05bf
00000120: 98e5 5ac0 50d7 08c0 e148 16bd d891 25be
00000130: f720 09bd 787c 06bf 9508 0040 a4db 1ec0
00000140: d97a f43e aa88 64bf 3211 d7be 0eef efbe
00000150: 94f5 72bf 976f fe3f c198 ef3f d397 5f40
00000160: 84b8 a6bf 148a 88be 0534 a7c0 483e 0b3d
00000170: cac3 11c0 29e7 24c0 a097 86bf 0a01 96be
00000180: 7e64 25c0 0c08 52c0 4c76 d7be 4e5e 34be
00000190: 8e88 2440 aa58 9cbf b94e e2bf ff41 19c0
000001a0: a023 c0bf 077f 63c0 6c02 4bbe cc54 1fc0
000001b0: 7b77 c040 502b 72c0 7a27 0b40 ce04 9c40
000001c0: c053 77bf 3471 30c0 47cb 8bbd d956 9bbe
000001d0: 4854 b5bf 786e 383f c50c 08c0 3b1f 77bf
000001e0: 6a5c 5ac0 8758 593e fe7e 853f 4fdd 9c3f
000001f0: a69c 4d3f bc77 e4bf f16e cdbe d00e 09be
00000200: b062 c13f d7a1 85bf c657 fcbe 3098 1b40
00000210: 1730 4340 c0f7 bfbf 4205 3a40 0ced cebf
00000220: 61fb 88bf 9c3f 653f e8ad 8d3c 0010 2dba
00000230: b389 983f 20fd dfbf 07a7 ccc0 89c6 30c0
00000240: 56b4 d1be cb2c 2fbf 5320 f03f 9863 d73f
00000250: 046c 8fbf 11d4 8640 ad34 edbf 5188 6740
00000260: 9960 f1bf bcc8 f7bf 30a9 043f 6b6d 25c0
00000270: 2e5d f8bf 11e9 853f 4e71 c6bf 9d05 1ebe
00000280: 6096 ea3f 7810 25c0 984f 3cbf 29a1 42bf
00000290: 7501 26c0 9369 0140 786c b7bf 1678 88c0
000002a0: e4dc 38c0 50ea dabd 2aac 5b3f 7cce d4be
000002b0: a611 6a3f f397 f33f 9a52 97bf 67e3 06bf
000002c0: 58c1 53c0 80a3 37be b835 7abd f5ba ef40
000002d0: 4ca2 a6be 1781 b9bf 21e0 12c0 15c7 4ac0
000002e0: ba44 5bbd 3277 a7be 55cb 9ebe e9e5 d540
000002f0: 26f9 973f 4a09 6cbf 26d1 d8be fd03 16be

model_3/block_10_depthwise_BN/FusedBatchNormV3 f4 [192]
1.5472835 0.88225156 3.0258281 0.6947444 2.1637602 -0.8361527 -0.23754956 0.9092075
0.026874334 1.9024317 2.652197 1.2199873 -2.8683548 4.3646445 4.7942915 1.8856266
3.1650186 3.5426264 0.35953152 0.12892036 -0.067085534 -0.5770984 1.1277161 -2.6838975
0.21099657 0.8961097 5.2752757 1.2446766 3.106602 0.40624547 -0.547782 -0.10597873
5.171677 -0.5347524 1.8984952 -0.4077019 1.0665733 1.1496477 -0.105463356 4.612983
0.7200871 1.7290139 2.6869154 4.6333523 -1.5929502 -0.18598378 2.5932615 3.8939536
0.44160664 -0.25745603 2.9547143 1.4464545 -0.36407986 2.113548 2.5866294 0.15202351
0.09632909 -0.16777912 0.7912112 1.6509709 1.6461614 3.3414211 1.2435828 0.64439076
0.07096112 -0.68051195 -0.9526925 -1.9207015 0.8477469 3.428119 -0.21312714 2.094794
2.7839944 1.5744759 1.2778976 0.23661703 4.593573 -0.038222224 0.773952 1.2926106
1.693133 0.03329864 4.4339356 -0.8824188 2.2351398 2.5507808 1.2752196 2.7212996
1.3576887 0.83792496 -0.033213496 -0.44607487 2.9918184 1.2966974 -0.55742544 0.19722664
-0.4155414 2.4373171 -0.22568697 -1.1386268 -0.5646861 1.9177579 0.99145997 3.579076
0.8481056 4.703078 0.023211122 1.3012154 -1.8118031 2.4121168 0.61901927 1.7648034
4.0466776 -1.0883331 0.07055551 1.660491 1.3322316 1.7933278 1.8560343 3.5614924
-0.23472482 2.208672 -0.039106846 1.0674057 3.3103693 1.3671451 2.924328 0.4671613
1.2224238 3.5203211 -0.84520036 -0.0017180443 1.624223 1.4494033 -0.8368271 1.0864439
1.4099 -1.977721 -5.146214 0.6244347 -3.9084833 1.0982261 -0.18850523 3.569564
2.5544567 -0.044641912 0.91567296 2.2354124 -1.5204561 2.5786514 1.8724377 2.6585653
0.020522118 0.44741967 0.04462941 0.16858551 1.3129574 -0.45988664 0.18513846 1.1721468
0.11114085 1.4421065 -1.1027784 4.1481857 1.4095666 1.6312051 -0.06058204 -0.6202682
1.7253861 3.9718122 1.8623477 0.083571106 -4.8657575 -0.23628098 -0.6260922 1.8875955
2.1011121 2.2549987 -1.9609076 0.0022245646 0.32410604 -1.7289301 1.3694863 -0.28975207
2.295875 -0.2998668 1.6071693 2.100133 1.3916664 -2.2572675 1.3747202 2.9112098
00000000: 630d c63f 3ddb 613f 2ba7 4140 c5da 313f
00000010: 0c7b 0a40 1a0e 56bf 3140 73be d3c1 683f
00000020: 9027 dc3c e282 f33f 98bd 2940 8b28 9c3f
00000030: 2093 37c0 2bab 8b40 d66a 9940 365c f13f
00000040: aa8f 4a40 64ba 6240 8414 b83e b303 043e
00000050: 2464 89bd b9bc 13bf 0059 903f fac4 2bc0
00000060: 7c0f 583e 7267 653f 0fcf a840 9051 9f3f
00000070: 91d2 4640 68ff cf3e 713b 0cbf 600b d9bd
00000080: 617e a540 89e5 08bf e401 f33f 4ebe d0be
00000090: 7985 883f a827 933f 2cfd d7bd 8f9d 9340
000000a0: a157 383f 5450 dd3f 6cf6 2b40 6c44 9440
000000b0: cbe5 cbbf 8872 3ebe fff7 2540 8936 7940
000000c0: 441a e23e 47d1 83be 0a1a 3d40 6c25 b93f
000000d0: ad68 babe 5f44 0740 568b 2540 0dac 1b3e
000000e0: 3048 c53d 4ace 2bbe d18c 4a3f 0453 d33f
000000f0: 6bb5 d23f d8d9 5540 b92d 9f3f cbf6 243f
00000100: 1054 913d 0836 2ebf a8e3 73bf 8cd9 f5bf
00000110: f105 593f 4d66 5b40 003e 5abe 1b11 0640
00000120: f72c 3240 6d88 c93f 2692 a33f bc4b 723e
00000130: 8dfe 9240 e88e 1cbd b821 463f 4474 a53f
00000140: 95b8 d83f 2864 083d cde2 8d40 33e6 61bf
00000150: 880c 0f40 fe3f 2340 653a a33f c629 2e40
00000160: bec8 ad3f 4082 563f e00a 08bd ed63 e4be
00000170: f479 3f40 2efa a53f 6fb3 0ebf c8f5 493e
00000180: d8c1 d4be 01fd 1b40 7c1a 67be 86be 91bf
00000190: 458f 10bf 1779 f53f 52d0 7d3f 950f 6540
000001a0: 731d 593f 9d7f 9640 4025 be3c 3a8e a63f
000001b0: 2ae9 e7bf 1f60 1a40 0c78 1e3f 14e5 e13f
000001c0: 627e 8140 804e 8bbf 687f 903d f88a d43f
000001d0: 9186 aa3f c48b e53f 8892 ed3f 7eef 6340
000001e0: b45b 70be e25a 0d40 802e 20bd c0a0 883f
000001f0: 17dd 5340 9cfe ae3f 3128 3b40 c42f ef3e
00000200: 6278 9c3f f14c 6140 0d5f 58bf 0030 e1ba
00000210: 8ae6 cf3f 0c86 b93f 4d3a 56bf 9810 8b3f
00000220: 9a77 b43f f625 fdbf c9ad a4c0 f4da 1f3f
00000230: 9724 7ac0 ac92 8c3f 8407 41be bd73 6440
00000240: 387c 2340 70da 36bd 8b69 6a3f ff10 0f40
00000250: 4e9e c2bf a008 2540 0aac ef3f ef25 2a40
00000260: 001e a83c 3114 e53e 54cd 363d aea1 2c3e
00000270: fd0e a83f 4376 ebbe f094 3d3e e808 963f
00000280: d09d e33d f296 b83f d827 8dbf f0bd 8440
00000290: ae6c b43f 54cb d03f e024 78bd e6c9 1ebf
000002a0: 74d9 dc3f 2c32 7e40 6961 ee3f 5427 ab3d
000002b0: 49b4 9bc0 a4f3 71be 9447 20bf bb9c f13f
000002c0: 9f78 0640 e651 1040 05ff fabf 00ca 113b
000002d0: 3af1 a53e 954d ddbf 544b af3f 625a 94be
000002e0: 9eef 1240 2488 99be b9b7 cd3f 9468 0640
000002f0: 2022 b23f 1277 10c0 d5f6 af3f 4351 3a40

model_3/block_11_depthwise_BN/FusedBatchNormV3 f4 [288]
-1.9652772 -0.81628823 -1.5938746 -0.3678459 2.4814467 2.0781312 1.201926 1.3803304
-0.605293 -2.7179303 -1.2462318 -0.3022876 -0.21457693 0.8057875 -1.3955436 -0.23165093
-0.15808581 -0.21136317 -0.13429563 -0.9922756 -1.39489 -0.2718378 -0.1462211 6.77818
-1.1958891 -1.2061163 -1.2285631 3.1766822 2.3178177 -0.6464551 3.019905 8.780823
1.8820509 -0.9498241 -2.9909453 2.7775514 0.8809016 -0.4704839 -0.32096136 1.7683048
2.34647 1.7438647 -0.18939427 -1.814978 -0.35303682 -3.933638 2.112584 0.043650866
-0.66537786 -0.024014294 -0.6007276 2.738743 -1.5648549 -1.1338209 -1.3834659 -3.581182
1.4832591 1.4216517 3.9270062 -1.5902207 1.0198656 0.29709765 -4.530894 -0.61485076
-2.7326674 -1.0994635 -0.11585745 -4.5604005 3.283868 4.5279016 -1.1518608 1.2454678
1.9126178 -0.107418776 -1.2521173 -0.36000875 -0.01810959 -0.06700206 5.3766737 -2.3474164
-3.9678235 -2.4317923 -1.3019708 0.0992014 1.5663565 -0.21480635 -0.35573894 -2.7874517
2.325967 -0.07430695 -0.71425235 2.8224554 0.6915327 2.1599636 -2.9072719 1.3277647
-1.1956633 1.6161371 -2.411047 -0.10604453 -0.20184705 -1.3147073 -0.76884496 1.0368813
-0.65366095 2.205714 -2.4384089 -1.6190565 -0.044512957 0.11678064 5.1478815 0.023886085
-0.24339026 -0.041787773 1.618999 -2.22854 -0.12502941 -2.3649087 -0.5893054 -0.4471521
-0.394237 -5.9377427 -1.9406188 1.5381804 -1.4135157 0.45006013 -0.049235433 1.4387668
-0.46032542 -0.35423258 -0.07609093 -2.8306363 -4.6297584 -1.672052 2.6634517 -2.5239444
0.11839931 0.0741723 -1.4554555 -2.7662313 1.5487473 -0.12703183 1.8714677 -1.3181406
2.0989232 0.122323215 -0.34501165 -0.14826506 -0.04044628 -1.724917 0.09612882 -0.16342211
-0.13017811 -0.122951664 -2.5680835 0.49555728 1.4309993 -0.015085634 2.281159 -0.38842013
-0.59353095 0.18907452 -0.2293797 -0.46086755 0.007953405 -2.9736147 -2.0630398 -3.219082
-0.33799464 -0.6044841 -0.33966994 -0.41399667 0.32248175 -0.02046772 -0.90467376 -2.8551862
-0.06591581 0.13043432 -2.127497 -2.2299352 1.5650438 0.45014063 -2.0556498 -0.60079455
-0.94479895 2.7832847 -1.1908543 -0.2086699 0.6883754 -2.922817 4.072064 0.0064661168
-0.9658937 -0.3785593 1.5465101 -0.29422593 -0.038517684 -2.1285353 -1.4044027 -2.9583535
-0.51510304 -0.032978967 2.9528282 0.8819362 0.13960415 -0.2060852 2.594748 -1.1613611
0.99993813 -0.030140616 0.015188754 -0.6360439 0.6940737 -2.052599 0.25640905 -0.03413044
-0.93895596 -2.7459955 1.9321566 1.4216456 -0.050128937 -0.43241155 -2.1668017 -2.8823853
-0.47829106 -2.4234464 -0.9450406 -1.1682022 -1.4133914 -0.15046772 -0.8288988 1.2556299
2.0702956 -0.71790504 3.1407557 0.51916206 0.16770893 -0.07119897 -0.4230733 -0.072698414
0.2449875 -1.6535788 -1.7665699 -1.1390672 1.4038036 -0.65419805 3.124574 3.016823
-0.3283743 -0.8653912 -0.45826668 1.3944901 -0.4467889 0.038818717 -0.13458133 0.7732158
00000000: 348e fbbf 44f8 50bf 1504 ccbf 4c56 bcbe
00000010: 06d0 1e40 1a00 0540 b6d8 993f abae b03f
00000020: 7bf4 1abf 92f2 2dc0 8684 9fbf 71c5 9abe
00000030: 0eba 5bbe 1748 4e3f 2ca1 b2bf e735 6dbe
00000040: 3fe1 21be 966f 58be cb84 09be c605 7ebf
00000050: c18b b2bf 532e 8bbe fcba 15be dae6 d840
00000060: e512 99bf 0562 9abf 8e41 9dbf c34e 4b40
00000070: 2057 1440 157e 25bf 2046 4140 407e 0c41
00000080: 0be7 f03f ac27 73bf a66b 3fc0 67c3 3140
00000090: c482 613f 44e3 f0be 0c55 a4be d057 e23f
000000a0: 912c 1640 f536 df3f 92f0 41be 3351 e8bf
000000b0: 3ec1 b4be bac0 7bc0 9434 0740 40cb 323d
000000c0: 3456 2abf a0b9 c4bc 49c9 19bf 9147 2f40
000000d0: 2a4d c8bf 0b21 91bf 6915 b1bf 1632 65c0
000000e0: 6fdb bd3f aff8 b53f 1254 7b40 5a8c cbbf
000000f0: f58a 823f 2f1d 983e 15fd 90c0 dc66 1dbf
00000100: 06e4 2ec0 38bb 8cbf ac46 edbd cdee 91c0
00000110: e52a 5240 92e4 9040 2d70 93bf 7d6b 9f3f
00000120: a9d0 f43f 60fe dbbd 6145 a0bf 1153 b8be
00000130: 905a 94bc 6038 89bd b60d ac40 123c 16c0
00000140: d2f0 7dc0 7ca2 1bc0 fba6 a6bf 1b2a cb3d
00000150: 5f7e c83f 32f6 5bbe 6a23 b6be 9c65 32c0
00000160: a5dc 1440 3e2e 98bd 3ed9 36bf 1ca3 3440
00000170: 4908 313f d83c 0a40 be10 3ac0 32f4 a93f
00000180: 7f0b 99bf 95dd ce3f 984e 1ac0 e02d d9bd
00000190: feb0 4ebe 5448 a8bf 06d3 44bf 87b8 843f
000001a0: 5356 27bf 6b2a 0d40 e40e 1cc0 3e3d cfbf
000001b0: 3853 36bd b02a ef3d 72bb a440 c0ac c33c
000001c0: 4c3b 79be a829 2bbd 5c3b cf3f 66a0 0ec0
000001d0: b607 00be aa5a 17c0 b8dc 16bf 1ff1 e4be
000001e0: 6fd9 c9be fd01 bec0 3266 f8bf 18e3 c43f
000001f0: 15ee b4bf 486e e63e 18ab 49bd 8329 b83f
00000200: c6af ebbe f95d b5be 90d5 9bbd 2529 35c0
00000210: fb26 94c0 cd05 d6bf fe75 2a40 4e88 21c0
00000220: 567b f23d a6e7 973d 5e4c babf ef09 31c0
00000230: 5a3d c63f a214 02be 418c ef3f d5b8 a8bf
00000240: c254 0640 9884 fa3d 5ea5 b0be ccd2 17be
00000250: 00ab 25bd 15ca dcbf 30df c43d 2058 27be
00000260: 694d 05be 15ce fbbd 7b5b 24c0 afb9 fd3e
00000270: fc2a b73f bc29 77bc 82fe 1140 01df c6be
00000280: a5f1 17bf c09c 413e 83e2 6abe d5f6 ebbe
00000290: 004f 023c b44f 3ec0 d808 04c0 7105 4ec0
000002a0: a20d adbe 78bf 1abf 38e9 adbe 5ff7 d3be
000002b0: 541c a53e ecab a7bc b398 67bf 5fbb 36c0
000002c0: defe 86bd 9390 053e e928 08c0 42b7 0ec0
000002d0: 5b53 c83f d578 e63e c48f 03c0 accd 19bf
000002e0: 58de 71bf 5621 3240 ea6d 98bf 90ad 55be
000002f0: 5f39 303f 6f0f 3bc0 594e 8240 b8e1 d33b
00000300: cf44 77bf 86d2 c1be 0bf4 c53f c8a4 96be
00000310: b8c4 1dbd ec39 08c0 78c3 b3bf aa55 3dc0
00000320: cbdd 03bf f414 07bd 23fb 3c40 92c6 613f
00000330: 64f4 0e3e 0008 53be 5a10 2640 7ba7 94bf
00000340: f2fb 7f3f 74e9 f6bc 40da 783c c6d3 22bf
00000350: d0ae 313f c85d 03c0 0c48 833e 5ccc 0bbd
00000360: 6b5f 70bf 64be 2fc0 e850 f73f 7cf8 b53f
00000370: 0054 4dbd 0c65 ddbe e1ac 0ac0 0079 38c0
00000380: 91e2 f4be bf19 1bc0 2eee 71bf a687 95bf
00000390: 02ea b4bf 3614 1abe b632 54bf 7bb8 a03f
000003a0: b97f 0440 a0c8 37bf 2402 4940 cee7 043f
000003b0: e4bb 2b3e c4d0 91bd 109d d8be e8e2 94bd
000003c0: 01de 7a3e 78a8 d3bf f61e e2bf f4cc 91bf
000003d0: d6af b33f 8679 27bf 05f9 4740 a113 4140
000003e0: ad20 a8be 478a 5dbf eea1 eabe a77e b23f
000003f0: 84c1 e4be 6000 1f3d b0cf 09be 78f1 453f

model_3/block_12_depthwise_BN/FusedBatchNormV3 f4 [288]
-4.8409266 -2.526556 -0.28810224 4.385356 -1.0779638 0.62609565 -2.473769 0.7812534
-3.1288521 1.3062617 -2.2978492 0.44196647 -0.75957465 2.6899855 2.575344 -1.9212023
-0.98336315 -2.8032968 1.5667734 -2.140546 -4.4049544 -0.9714892 -0.17998043 -1.5967448
1.7027888 2.1820283 -2.3734155 0.85970855 -0.5192746 0.65809 -2.1415017 0.5503329
-2.7885764 -1.1671275 -2.0911312 -1.6153624 1.0776721 -0.005921662 -0.4907841 -0.045105547
-0.29004732 -0.024495026 -1.6579559 -0.59574455 0.87727475 1.4148254 -2.3146925 -1.6285107
-2.0364492 1.9599108 -0.4435383 1.0983132 -0.6021725 -4.604944 0.4382362 -2.4790187
-0.74186134 0.9262109 -1.5570955 1.7310901 -1.1196084 1.7779127 3.9898653 -1.9123327
-3.583012 -2.6502445 -2.9025786 -1.2875516 -2.7374074 -3.0718036 -1.1173861 -0.72613716
-0.11900328 -1.3301831 -0.21852508 0.26502043 -0.79732805 -1.5594025 0.5881879 -1.8141763
-6.414624 0.9788846 -1.5998466 -0.5460724 -2.6796064 -1.0869365 -3.6850514 1.5784638
-1.3441778 -0.7279023 1.2719047 -5.3672323 0.11759785 -2.062831 -0.14853567 5.0660276
0.4803177 1.4904351 -1.0072874 -1.5909069 -0.506212 -1.4386613 0.830853 0.013845436
1.1264799 -1.4274637 3.0852566 -3.0636392 -0.51368195 -1.5156453 -1.879578 14.883255
2.2878897 1.2341518 -1.599683 -0.23906823 2.6315594 -0.83453536 0.2838865 1.3359203
-1.5643638 -3.4286423 -0.7698358 -3.4720082 1.3148537 -3.543357 3.0656247 -2.047039
-5.1147175 -6.18968 -2.3164344 -0.0688889 0.20577148 1.1734021 -0.62211263 -0.81385106
-4.225036 -0.26606715 0.86573315 -0.49773067 0.25584924 -3.1034265 -1.8442166 -0.39645326
1.0998315 0.02394288 -0.22132635 -4.727001 -2.4706867 0.009126063 -0.0047043823 -0.99465376
-0.07723278 -1.5699232 -1.9090399 -0.5362849 0.23296897 -2.4304743 0.19021863 -2.530252
0.015825592 -2.455383 -2.6345139 -3.8304455 1.0900297 -0.0062637925 1.407178 2.4845188
-0.08244108 0.9962946 0.5213976 -1.8427464 2.2965684 -0.08559656 -0.36154038 2.346295
-0.38634315 -0.6736256 0.03255394 -3.1790395 -2.0536904 -1.2794381 -0.17351988 3.244741
1.142459 -0.13985226 -4.4975824 0.6766816 -0.7880673 1.9157264 -2.2037826 -3.5316448
-1.7025604 4.6553574 -1.5702288 -0.07569214 -0.17948374 -9.019236 -2.9501147 -4.647733
-1.6568544 -1.3471965 1.1916033 -1.069315 -0.1934581 -4.6569204 1.2511426 -0.8253057
1.4000826 -1.2804699 0.09902914 -0.80910313 -1.3521433 -2.5599651 0.5142111 1.6890919
-0.15366822 -2.0854142 1.7731887 -1.9920306 -7.2249565 0.0014568642 -0.38736647 -1.8150926
-0.14092566 0.1494863 1.6531593 1.6275506 -5.03494 -0.35150802 -0.69823015 -1.3960378
-2.7079883 -3.4600484 -0.75404793 2.8578026 1.1155304 -2.8285754 -0.6698323 1.5909266
-2.708157 -0.15346207 -1.5062795 -1.0544351 -0.22330214 1.7903793 -0.32388932 -1.920877
-0.14872648 1.1708796 0.03968793 0.9517693 -1.9460127 0.111062035 -1.6287801 1.7129544
00000000: dfe8 9ac0 18b3 21c0 2382 93be d654 8c40
00000010: b8fa 89bf ce47 203f 3b52 1ec0 3900 483f
00000020: 1d3f 48c0 9533 a73f f60f 13c0 6e49 e23e
00000030: 7c73 42bf b928 2c40 70d2 2440 f5e9 f5bf
00000040: b0bd 7bbf 3769 33c0 088c c83f b5fe 08c0
00000050: 63f5 8cc0 84b3 78bf ca4c 38be 2262 ccbf
00000060: fcf4 d93f 5aa6 0b40 0ae6 17c0 dc15 5c3f
00000070: 2eef 04bf 9678 283f 5d0e 09c0 9ee2 0c3f
00000080: 0978 32c0 6f64 95bf 18d5 05c0 32c4 cebf
00000090: 29f1 893f 800a c2bb 0e48 fbbe 98c0 38bd
000000a0: 1581 94be cba9 c8bc e637 d4bf b782 18bf
000000b0: 1495 603f 0019 b53f ec23 14c0 0a73 d0bf
000000c0: 2f55 02c0 5bde fa3f 7417 e3be 8795 8c3f
000000d0: fa27 1abf b45b 93c0 7f60 e03e 3ea8 1ec0
000000e0: a0ea 3dbf 281c 6d3f e84e c7bf 5c94 dd3f
000000f0: 544f 8fbf a592 e33f f459 7f40 51c7 f4bf
00000100: 1250 65c0 9b9d 29c0 d9c3 39c0 7ece a4bf
00000110: af31 2fc0 6e98 44c0 8206 8fbf 20e4 39bf
00000120: feb7 f3bd 7143 aabf 0ac5 5fbe c2b0 873e
00000130: b11d 4cbf 809a c7bf 7b93 163f ee36 e8bf
00000140: 9a44 cdc0 2e98 7a3f c6c7 ccbf 67cb 0bbf
00000150: ac7e 2bc0 bc20 8bbf e2d7 6bc0 1a0b ca3f
00000160: 050e acbf ce57 3abf c6cd a23f 5ec0 abc0
00000170: 24d7 f03d 6c05 04c0 bc19 18be e61c a240
00000180: 34ec f53e 94c6 be3f cbee 80bf d6a2 cbbf
00000190: 1c97 01bf 0e26 b8bf c8b2 543f f8d7 623c
000001a0: 7e30 903f 21b7 b6bf d874 4540 aa12 44c0
000001b0: a980 03bf aa00 c2bf 0396 f0bf d021 6e41
000001c0: c96c 1240 b0f8 9d3f 6ac2 ccbf 4dce 74be
000001d0: 786b 2840 1ca4 55bf 9259 913e 70ff aa3f
000001e0: 133d c8bf e06e 5bc0 f613 45bf 6235 5ec0
000001f0: 204d a83f 5cc6 62c0 3233 4440 b002 03c0
00000200: c4ab a3c0 dc11 c6c0 7640 14c0 a015 8dbd
00000210: c2b5 523e 0a32 963f c642 1fbf 8b58 50bf
00000220: 7f33 87c0 f439 88be b0a0 5d3f 8ed6 febe
00000230: acfe 823e 8a9e 46c0 4a0f ecbf ecfb cabe
00000240: 47c7 8c3f dc23 c43c 60a3 62be 9843 97c0
00000250: bb1f 1ec0 7c85 153c 3827 9abb a1a1 7ebf
00000260: 382c 9ebd 3ef3 c8bf 6b5b f4bf f849 09bf
00000270: 6b8f 6e3e e48c 1bc0 acc8 423e a6ef 21c0
00000280: aca4 813c ff24 1dc0 e09b 28c0 0526 75c0
00000290: 1886 8b3f 8040 cdbb 691e b43f 5b02 1f40
000002a0: ded6 a8bd 2a0d 7f3f 507a 053f 1ddf ebbf
000002b0: fafa 1240 404d afbd d21b b9be b329 1640
000002c0: c5ce c5be ba72 2cbf 4857 053d 6275 4bc0
000002d0: aa6f 03c0 a1c4 a3bf 32af 31be d6a9 4f40
000002e0: 193c 923f 6e35 0fbe 32ec 8fc0 013b 2d3f
000002f0: c7be 49bf 8636 f53f c60a 0dc0 7806 62c0
00000300: 80ed d9bf b0f8 9440 42fd c8bf 7b04 9bbd
00000310: 96ca 37be ca4e 10c1 aece 3cc0 3bba 94c0
00000320: ce13 d4bf ef70 acbf 7586 983f 50df 88bf
00000330: e119 46be 7e05 95c0 7125 a03f 3c47 53bf
00000340: e835 b33f 70e6 a3bf cacf ca3d 6221 4fbf
00000350: 0813 adbf 78d6 23c0 57a3 033f 2a34 d83f
00000360: 345b 1dbe 6d77 05c0 d9f7 e23f dcfa febf
00000370: d832 e7c0 40f4 be3a e654 c6be f454 e8bf
00000380: d14e 10be f012 193e b99a d33f 9453 d03f
00000390: 3a1e a1c0 dcf8 b3be 36bf 32bf 5eb1 b2bf
000003a0: ae4f 2dc0 6f71 5dc0 4909 41bf 3de6 3640
000003b0: b3c9 8e3f 6107 35c0 217a 2bbf 7ca3 cb3f
000003c0: 7252 2dc0 2925 1dbe c4cd c0bf bbf7 86bf
000003d0: 51a9 64be 262b e53f d2d4 a5be 4cdf f5bf
000003e0: c14b 18be 62df 953f d08f 223d 27a7 733f
000003f0: f216 f9bf 7e74 e33d de7b d0bf 1742 db3f

model_3/block_13_depthwise_BN/FusedBatchNormV3 f4 [288]
4.5597596 4.919837 0.14084446 0.09890735 0.02727729 3.03455 -0.069823325 0.015467763
3.7718709 -0.13010037 -0.111423135 -0.027877092 -0.15179655 0.19238484 -0.13166496 5.449607
4.286523 -0.07740942 -0.024968565 4.8380623 -0.12265971 -0.037020683 4.4685783 4.6734824
2.4190767 -0.09195843 -0.106336296 -5.924094 -7.1751404 2.6357234 3.6476629 -0.072675824
-0.26128724 -0.20722425 0.09581557 -0.040572554 0.022972345 -0.13413745 2.4253654 -0.07948968
-0.1056695 5.9676266 -0.17051667 -0.098380625 -0.6303294 2.852734 -0.057168245 -0.038963854
-0.05410099 -0.07502431 -0.218544 2.4293942 0.19698453 -0.07363501 0.014485121 -0.093997955
-0.21158451 0.71526283 -0.07195127 -0.05202639 3.4838881 -0.09179318 -0.26830366 -0.089313895
0.055493176 3.6918774 2.424896 -0.08456099 -0.17805088 3.3800778 -0.050234765 -0.0899193
-0.08249855 -0.042948782 -0.17431396 4.4067674 -0.07908955 5.366131 2.9863691 6.058795
-0.33109587 -0.08969861 -0.21105036 -0.025851786 -0.008916795 -0.0018315911 -0.08092502 -0.17171091
0.2979139 0.001978159 2.325561 0.1867556 3.36512 -0.047372818 -0.12174481 -0.08816874
4.112601 5.769249 4.8141956 3.3763604 -0.10598537 -0.20813346 2.7482862 -0.06374696
-0.10348785 -0.14522213 4.5360394 -0.2015984 0.0012914538 0.07468641 0.36633313 0.018719137
0.18106017 0.19899756 5.219438 4.709341 2.67386 0.10469329 -0.11072248 0.48772603
0.13089931 3.541492 -0.14298505 -0.14539379 0.4968854 -0.03695917 -0.12134296 -0.04091531
0.001301229 2.47772 4.5826807 -0.23562723 -0.2317276 2.3761468 -2.4202514 2.6125371
0.121745765 4.3785505 -0.63630676 0.22877085 -0.04401976 -0.08744109 0.09929037 2.771793
-0.10341647 -0.14008501 0.5134 -0.1248371 4.817593 -0.01006791 -0.106898904 -0.11427188
3.3351886 4.1815577 -0.14474481 4.323731 -0.13660729 0.25848657 -0.08424109 0.03718406
0.009647146 -0.06406212 -0.10599798 -0.13612354 5.027137 0.9272732 -0.09424335 0.012269795
2.2476552 -0.024194479 0.35573256 2.6504025 -0.04690945 -0.12153801 -0.10743284 4.2397084
2.3211207 -0.10437101 4.599805 2.6597605 -0.04695177 -0.026092708 0.1720578 -0.013520122
5.4216657 -0.3393041 0.480572 -0.06438166 -0.060855925 0.18877363 4.277784 -0.04902649
-0.23213673 2.6243093 2.8252645 3.2723594 -0.1400165 0.17359048 -0.04395768 4.7640777
-0.034014076 -0.18882218 -0.031571448 1.0543948 -0.16017234 -0.05855295 -0.44459793 2.3688216
2.1644719 4.3346663 0.030515075 0.8276872 1.8696433 4.4164915 2.2824574 -2.0657544
-0.2934572 -0.21258265 1.9910278 -0.043497086 0.33710384 -0.17497009 0.22098947 2.944862
-0.0958806 -0.09310973 -0.0374521 0.0919745 3.7590346 -0.18799412 -0.08360666 4.695806
-0.04246062 0.12996125 -0.08834705 0.031839132 -0.2701822 0.23389697 0.55131966 -0.05386305
-0.054295957 -0.08172023 0.009858252 5.348907 -0.09320372 -0.08110148 5.2047014 -0.047000587
-0.044155896 5.5922914 -0.097205475 -0.17455137 -0.03603673 -0.12332106 4.1374207 2.489031
00000000: 8de9 9140 4e6f 9d40 8839 103e f08f ca3d
00000010: a074 df3c 1136 4240 88ff 8ebd 806c 7d3c
00000020: 5566 7140 0839 05be d031 e4bd 805e e4bc
00000030: 8e70 1bbe 8800 453e 2ed3 06be 2e63 ae40
00000040: 322b 8940 d488 9ebd e08a ccbc 68d1 9a40
00000050: 0435 fbbd 00a3 17bd 98fe 8e40 2b8d 9540
00000060: 27d2 1a40 b454 bcbd d8c6 d9bd 2e92 bdc0
00000070: c09a e5c0 b1af 2840 4f73 6940 10d7 94bd
00000080: 71c7 85be 9832 54be f43a c43d 682f 26bd
00000090: 8030 bc3c 545b 09be 3039 1b40 7ccb a2bd
000000a0: 4069 d8bd ccf6 be40 ec9b 2ebe c87b c9bd
000000b0: 445d 21bf 3293 3640 4029 6abd 9098 1fbd
000000c0: 0099 5dbd 58a6 99bd 00ca 5fbe 327b 1b40
000000d0: 50b6 493e f4cd 96bd 0053 6d3c 0082 c0bd
000000e0: 9ca9 58be 771b 373f 305b 93bd a019 55bd
000000f0: 06f8 5e40 10fe bbbd 195f 89be 34ea b6bd
00000100: d04c 633d b847 6c40 7f31 1b40 502e adbd
00000110: f852 36be 3253 5840 f8c2 4dbd 9c27 b8bd
00000120: 00f5 a8bd 10eb 2fbd 5c7f 32be 3d04 8d40
00000130: b4f9 a1bd 58b7 ab40 ac20 3f40 a6e1 c140
00000140: 6685 a9be e8b3 b7bd 961d 58be 20c7 d3bc
00000150: c017 12bc 0012 f0ba 04bc a5bd fcd4 2fbe
00000160: 2c88 983e 00a4 013b fed5 1440 dc3c 3f3e
00000170: 205e 5740 000a 42bd 5855 f9bd d091 b4bd
00000180: 6d9a 8340 b09d b840 e40d 9a40 4a16 5840
00000190: dc0e d9bd f020 55be ece3 2f40 c48d 82bd
000001a0: 70f1 d3bd 1cb5 14be 3c27 9140 d06f 4ebe
000001b0: 0046 a93a 30f5 983d 0490 bb3e e058 993c
000001c0: d667 393e 04c6 4b3e a305 a740 ecb2 9640
000001d0: 8620 2b40 7069 d63d 78c2 e2bd 3ab7 f93e
000001e0: 780a 063e cea7 6240 ac6a 12be 1ce2 14be
000001f0: c367 fe3e 8062 17bd a882 f8bd d096 27bd
00000200: 008e aa3a f792 1e40 52a5 9240 4448 71be
00000210: 004a 6dbe ca12 1840 66e5 1ac0 cf33 2740
00000220: d855 f93d 161d 8c40 00e5 22bf e842 6a3e
00000230: 104e 34bd 5014 b3bd c058 cb3d 0e65 3140
00000240: 04cc d3bd 7272 0fbe 2f6e 033f 98aa ffbd
00000250: b929 9a40 e0f3 24bc d0ed dabd 6007 eabd
00000260: bb73 5540 52cf 8540 fc37 14be 015c 8a40
00000270: c8e2 0bbe 5a58 843e 9886 acbd 504e 183d
00000280: 100f 1e3c 0033 83bd 7815 d9bd f863 0bbe
00000290: 4ede a040 c761 6d3f a802 c1bd 4007 493c
000002a0: 95d9 0f40 8033 c6bc 9422 b63e 32a0 2940
000002b0: 2024 40bd ece8 f8bd c005 dcbd b1ab 8740
000002c0: 3e8d 1440 78c0 d5bd 9a31 9340 8439 2a40
000002d0: 8050 40bd 60c0 d5bc ec2f 303e 8083 5dbc
000002e0: 497e ad40 44b9 adbe 880d f63e 88da 83bd
000002f0: 1044 79bd e04d 413e 9be3 8840 00d0 48bd
00000300: 40b5 6dbe aff4 2740 22d1 3440 566e 5140
00000310: 7c60 0fbe b4c1 313e f80c 34bd 5373 9840
00000320: 5852 0bbd 9a5a 41be 1051 01bd 69f6 863f
00000330: 3804 24be 38d5 6fbd 57a2 e3be c69a 1740
00000340: b586 0a40 96b5 8a40 c0fa f93c 4fe3 533f
00000350: 7950 ef3f e653 8d40 c813 1240 5235 04c0
00000360: 0640 96be 44af 59be 00da fe3f 002a 32bd
00000370: e098 ac3e 5c2b 33be 104b 623e 9e78 3c40
00000380: 0c5d c4bd 50b0 bebd 6067 19bd 205d bc3d
00000390: 0694 7040 8881 40be f839 abbd 0b44 9640
000003a0: 30eb 2dbd 9014 053e 4cef b4bd c069 023d
000003b0: 5255 8abe b082 6f3e 4923 0d3f 809f 5cbd
000003c0: 7065 5ebd f05c a7bd 8184 213c 3f2a ab40
000003d0: 98e1 bebd 8818 a6bd ea8c a640 b083 40bd
000003e0: d0dc 34bd 0df4 b240 aa13 c7bd 98bd 32be
000003f0: 409b 13bd c08f fcbd c065 8440 494c 1f40
